…
://localhost:8080/"},"id":"hc5F2pVl9awc","executionInfo":{"status":"ok","timestamp":1718536144183,"user_tz":-330,"elapsed":476,"user":{"displayName":"sai kiran reddy","userId":"05940459039186750059"}},"outputId":"d77932f7-e09e-4cd2-f5f3-d2161ace676e"},"execution_count":null,"outputs":[{"output_type":"stream","name":"stdout","text":["Model: \"sequential\"\n","_________________________________________________________________\n"," Layer (type)                Output Shape              Param #   \n","=================================================================\n"," conv2d (Conv2D)             (None, 64, 64, 32)        896       \n","                                                                 \n"," conv2d_1 (Conv2D)           (None, 62, 62, 32)        9248      \n","                                                                 \n"," max_pooling2d (MaxPooling2  (None, 31, 31, 32)        0         \n"," D)                                                              \n","                                                                 \n"," dropout (Dropout)           (None, 31, 31, 32)        0         \n","                                                                 \n"," conv2d_2 (Conv2D)           (None, 31, 31, 64)        18496     \n","                                                                 \n"," conv2d_3 (Conv2D)           (None, 29, 29, 64)        36928     \n","                                                                 \n"," max_pooling2d_1 (MaxPoolin  (None, 14, 14, 64)        0         \n"," g2D)                                                            \n","                                                                 \n"," dropout_1 (Dropout)         (None, 14, 14, 64)        0         \n","                                                                 \n"," flatten (Flatten)           (None, 12544)             0         \n","                                                                 \n"," dense (Dense)               (None, 512)               6423040   \n","                                                                 \n"," dense_1 (Dense)             (None, 256)               131328    \n","                                                                 \n"," dropout_2 (Dropout)         (None, 256)               0         \n","                                                                 \n"," dense_2 (Dense)             (None, 36)                9252      \n","                                                                 \n","=================================================================\n","Total params: 6629188 (25.29 MB)\n","Trainable params: 6629188 (25.29 MB)\n","Non-trainable params: 0 (0.00 Byte)\n","_________________________________________________________________\n"]}]},{"cell_type":"code","source":["training_history = cnn.fit(
…
